…
INFO - gpu_id            : 0
INFO - output_dir        : ./output
INFO - model_ckpt_path   : ./model/ckpt.pth
INFO - if_load_model     : False
INFO - if_save_nii       : False
INFO - if_use_tfm        : False
INFO - comment           : NONE
INFO - DatasetDir        : /home/jincan/long_seg/my3DUNet/Data/Imaging/Imaging_new_rig
INFO - mod               : long
INFO - save_nii_freq     : 20
INFO - weight_loss_dice  : 1.0
INFO - weight_loss_focal : 1.0
INFO - weight_loss_sim   : 0.0
INFO - -------------------TRAINING MODEL------------------
INFO - UNet3D(
  (encoder1): DoubleConv3D(
    (conv_block): Sequential(
      (0): Conv3d(8, 16, kernel_size=(3, 3, 3), stride=(1, 1, 1), padding=(1, 1, 1))
      (1): BatchNorm3d(16, eps=1e-05, momentum=0.1, affine=True, track_running_stats=True)
      (2): ReLU(inplace=True)
      (3): Dropout(p=0.1, inplace=False)
      (4): Conv3d(16, 16, kernel_size=(3, 3, 3), stride=(1, 1, 1), padding=(1, 1, 1))
      (5): BatchNorm3d(16, eps=1e-05, momentum=0.1, affine=True, track_running_stats=True)
      (6): ReLU(inplace=True)
    )
  )
  (pool1): MaxPool3d(kernel_size=2, stride=2, padding=0, dilation=1, ceil_mode=False)
  (encoder2): DoubleConv3D(
    (conv_block): Sequential(
      (0): Conv3d(16, 32, kernel_size=(3, 3, 3), stride=(1, 1, 1), padding=(1, 1, 1))
      (1): BatchNorm3d(32, eps=1e-05, momentum=0.1, affine=True, track_running_stats=True)
      (2): ReLU(inplace=True)
      (3): Dropout(p=0.1, inplace=False)
      (4): Conv3d(32, 32, kernel_size=(3, 3, 3), stride=(1, 1, 1), padding=(1, 1, 1))
      (5): BatchNorm3d(32, eps=1e-05, momentum=0.1, affine=True, track_running_stats=True)
      (6): ReLU(inplace=True)
    )
  )
  (pool2): MaxPool3d(kernel_size=2, stride=2, padding=0, dilation=1, ceil_mode=False)
  (encoder3): DoubleConv3D(
    (conv_block): Sequential(
      (0): Conv3d(32, 64, kernel_size=(3, 3, 3), stride=(1, 1, 1), padding=(1, 1, 1))
      (1): BatchNorm3d(64, eps=1e-05, momentum=0.1, affine=True, track_running_stats=True)
      (2): ReLU(inplace=True)
      (3): Dropout(p=0.2, inplace=False)
      (4): Conv3d(64, 64, kernel_size=(3, 3, 3), stride=(1, 1, 1), padding=(1, 1, 1))
      (5): BatchNorm3d(64, eps=1e-05, momentum=0.1, affine=True, track_running_stats=True)
      (6): ReLU(inplace=True)
    )
  )
  (pool3): MaxPool3d(kernel_size=2, stride=2, padding=0, dilation=1, ceil_mode=False)
  (encoder4): DoubleConv3D(
    (conv_block): Sequential(
      (0): Conv3d(64, 128, kernel_size=(3, 3, 3), stride=(1, 1, 1), padding=(1, 1, 1))
      (1): BatchNorm3d(128, eps=1e-05, momentum=0.1, affine=True, track_running_stats=True)
      (2): ReLU(inplace=True)
      (3): Dropout(p=0.2, inplace=False)
      (4): Conv3d(128, 128, kernel_size=(3, 3, 3), stride=(1, 1, 1), padding=(1, 1, 1))
      (5): BatchNorm3d(128, eps=1e-05, momentum=0.1, affine=True, track_running_stats=True)
      (6): ReLU(inplace=True)
    )
  )
  (pool4): MaxPool3d(kernel_size=2, stride=2, padding=0, dilation=1, ceil_mode=False)
  (bottleneck): DoubleConv3D(
    (conv_block): Sequential(
      (0): Conv3d(128, 256, kernel_size=(3, 3, 3), stride=(1, 1, 1), padding=(1, 1, 1))
      (1): BatchNorm3d(256, eps=1e-05, momentum=0.1, affine=True, track_running_stats=True)
      (2): ReLU(inplace=True)
      (3): Dropout(p=0.3, inplace=False)
      (4): Conv3d(256, 256, kernel_size=(3, 3, 3), stride=(1, 1, 1), padding=(1, 1, 1))
      (5): BatchNorm3d(256, eps=1e-05, momentum=0.1, affine=True, track_running_stats=True)
      (6): ReLU(inplace=True)
    )
  )
  (upconv4): ConvTranspose3d(256, 128, kernel_size=(2, 2, 2), stride=(2, 2, 2))
  (decoder4): DoubleConv3D(
    (conv_block): Sequential(
      (0): Conv3d(256, 128, kernel_size=(3, 3, 3), stride=(1, 1, 1), padding=(1, 1, 1))
      (1): BatchNorm3d(128, eps=1e-05, momentum=0.1, affine=True, track_running_stats=True)
      (2): ReLU(inplace=True)
      (3): Dropout(p=0.2, inplace=False)
      (4): Conv3d(128, 128, kernel_size=(3, 3, 3), stride=(1, 1, 1), padding=(1, 1, 1))
      (5): BatchNorm3d(128, eps=1e-05, momentum=0.1, affine=True, track_running_stats=True)
      (6): ReLU(inplace=True)
    )
  )
  (upconv3): ConvTranspose3d(128, 64, kernel_size=(2, 2, 2), stride=(2, 2, 2))
  (decoder3): DoubleConv3D(
    (conv_block): Sequential(
      (0): Conv3d(128, 64, kernel_size=(3, 3, 3), stride=(1, 1, 1), padding=(1, 1, 1))
      (1): BatchNorm3d(64, eps=1e-05, momentum=0.1, affine=True, track_running_stats=True)
      (2): ReLU(inplace=True)
      (3): Dropout(p=0.2, inplace=False)
      (4): Conv3d(64, 64, kernel_size=(3, 3, 3), stride=(1, 1, 1), padding=(1, 1, 1))
      (5): BatchNorm3d(64, eps=1e-05, momentum=0.1, affine=True, track_running_stats=True)
      (6): ReLU(inplace=True)
    )
  )
  (upconv2): ConvTranspose3d(64, 32, kernel_size=(2, 2, 2), stride=(2, 2, 2))
  (decoder2): DoubleConv3D(
    (conv_block): Sequential(
      (0): Conv3d(64, 32, kernel_size=(3, 3, 3), stride=(1, 1, 1), padding=(1, 1, 1))
      (1): BatchNorm3d(32, eps=1e-05, momentum=0.1, affine=True, track_running_stats=True)
      (2): ReLU(inplace=True)
      (3): Dropout(p=0.1, inplace=False)
      (4): Conv3d(32, 32, kernel_size=(3, 3, 3), stride=(1, 1, 1), padding=(1, 1, 1))
      (5): BatchNorm3d(32, eps=1e-05, momentum=0.1, affine=True, track_running_stats=True)
      (6): ReLU(inplace=True)
    )
  )
  (upconv1): ConvTranspose3d(32, 16, kernel_size=(2, 2, 2), stride=(2, 2, 2))
  (decoder1): DoubleConv3D(
    (conv_block): Sequential(
      (0): Conv3d(32, 16, kernel_size=(3, 3, 3), stride=(1, 1, 1), padding=(1, 1, 1))
      (1): BatchNorm3d(16, eps=1e-05, momentum=0.1, affine=True, track_running_stats=True)
      (2): ReLU(inplace=True)
      (3): Dropout(p=0.1, inplace=False)
      (4): Conv3d(16, 16, kernel_size=(3, 3, 3), stride=(1, 1, 1), padding=(1, 1, 1))
      (5): BatchNorm3d(16, eps=1e-05, momentum=0.1, affine=True, track_running_stats=True)
      (6): ReLU(inplace=True)
    )
  )
  (out_conv): Conv3d(16, 8, kernel_size=(1, 1, 1), stride=(1, 1, 1))
)
INFO - ------------------------Over----------------------
INFO - Epoch: 1, IoU: 0.1124, Dice: ['0.5021', '0.0043', '0.0470', '0.0386'] && [0.1480, 0.0300]
INFO - [Val] Epoch: 1, IoU: 0.0925, Dice: ['0.3978', '0.0000', '0.0188', '0.0543'] && [0.1177, 0.0243]
INFO - Model improved and saved at epoch 1
INFO - Epoch: 2, IoU: 0.1987, Dice: ['0.7803', '0.0056', '0.1381', '0.0478'] && [0.2430, 0.0639]
…
